assets/MHW.tflite (tflite, 23660 bytes, 7 tensors)

model/prevention_output/BiasAdd/ReadVariableOp f4 [8]
00000000: 7e43 7bbd 2104 003d c72b d6bb 2185 7d3d
00000010: 4932 493d 6177 0bbd 763e 0ebd 2507 a9ba
-0.061343662 0.031253938 -0.0065359804 0.06189454 0.04912022 -0.034049395 -0.034727536 -0.0012895806

model/dense_1/BiasAdd/ReadVariableOp f4 [64]
00000000: f2f0 823c dda6 b1bc 123b 6a3d 78c1 873c
00000010: a2bd bbbc fc45 b0bc e985 833c fcba 773d
00000020: 0000 0000 de78 4c3d 9949 513c fc0f f2bc
00000030: b88d 3a3c 3e48 5d3d 0000 0000 6dab b8bc
00000040: 2c9a 5a3d 3696 27bd 8388 95bc f088 873d
00000050: 296a 0a3d d13d c6bc 1ca6 78bc 3484 723d
00000060: 4288 95bc 6ba1 2fbd e690 c7bc 071f 00bd
00000070: c701 2d3d c9f3 1cbc b9da 553c 8320 b23b
00000080: 9bf0 07bd b98f cebc 26e1 d13c b5dd 953c
00000090: f682 fc3c 668b 963d 4e0a a73d 018d 8d3d
000000a0: 3361 b1bc a7c8 71bc f9c9 5a3c 9e7b 853d
000000b0: 72bc a5bc 7a85 4ebc 87fb 40bc 4a0e 053d
000000c0: a035 ba3d eba3 873d 3b2e 353d 9a0a e1bc
000000d0: 9ed6 1c3d ca7e bfbb 3118 22bd 563b 353d
000000e0: 5a30 67bc 4652 f53c f26b 873b a64b 15bd
000000f0: adc9 0e3d fbc0 403d a0cb 3f3d 0000 0000
0.015984032 -0.021686012 0.05718524 0.016571745 -0.022917572 -0.021517746 0.016055064 0.060481057
0.0 0.049919955 0.012773895 -0.029548638 0.011386327 0.054023974 0.0 -0.02254268
0.053369686 -0.040914737 -0.01825357 0.06617916 0.03379265 -0.024199398 -0.015176322 0.05920811
-0.01825345 -0.04287855 -0.024361085 -0.03127959 0.042238023 -0.009579607 0.013052636 0.0054360046
-0.033188444 -0.025215017 0.025620054 0.018294195 0.030824166 0.07350807 0.08156262 0.0691166
-0.021652794 -0.014757312 0.013353818 0.06517719 -0.02023146 -0.0126050655 -0.011778719 0.03248433
0.090922594 0.06623062 0.044233542 -0.027470876 0.038290612 -0.005843972 -0.039573852 0.04424604
-0.014110649 0.029946458 0.004132741 -0.036449097 0.0348603 0.04705904 0.04682505 0.0

model/dense/BiasAdd/ReadVariableOp f4 [64]
00000000: 1415 fb3b e548 bfbc eae7 9ebc 6573 6eba
00000010: 3e3f dc3d 16e6 2c3d 46eb 793d 64ef 923d
00000020: a2fc a1ba b9c6 ce3c 2570 bdbc 1a2b d93b
00000030: e562 2a3d 567e f83b 6de7 923d 7d45 d43a
00000040: 4214 583d 9c63 5a3d 1595 823c 2d6c 5d3d
00000050: 26e9 743d 8850 bd3d 5fc0 b03c 6945 ae3d
00000060: d7e3 b1bc 0dec 393d 98e3 7a3c 8424 08bd
00000070: 861e 693d 7a19 b63d 0b85 953d 437f 303d
00000080: 7d78 1f3d cb31 06bd 76ed 4a3b 4540 813d
00000090: 0d7b a63d 3e36 b53d 2d00 d73c f60a 8c3d
000000a0: 4d3e 083d 4cdd 833b e1fb 2abd 5fb9 953d
000000b0: 6d08 b0b9 b885 1e3d 44f2 a33b 2fe5 4a3d
000000c0: 61bd cf3d 391a bb3d b36b 793c b655 a93d
000000d0: e308 1ebd 4e6b ad3d 3e20 0a3d ad70 e13d
000000e0: 318c 543d 6a0a bd3d a1db 21bd d35a e93b
000000f0: 37e5 0d3d 301c e13c 2489 503d 7b71 c23b
0.007662425 -0.023350189 -0.019397695 -0.00090961746 0.1075425 0.042211615 0.06101539 0.071745664
-0.0012358616 0.025241243 -0.023124764 0.0066274526 0.04159822 0.00758342 0.07173047 0.0016195026
0.052753694 0.05331765 0.015940228 0.054058243 0.05979266 0.09243876 0.021576105 0.08509333
-0.021715088 0.04539113 0.015313052 -0.03323795 0.056913875 0.08891578 0.073007666 0.043090116
0.038933266 -0.03276233 0.0030964292 0.063110866 0.08128939 0.088482365 0.026245201 0.06838028
0.03326254 0.0040241834 -0.041744117 0.07310747 -0.00033575614 0.038701743 0.0050032455 0.049534973
0.10143543 0.09135861 0.015223431 0.08268301 -0.038582694 0.08467732 0.033722155 0.11007819
0.05189151 0.09230502 -0.039516095 0.007121423 0.034642424 0.027479261 0.050912037 0.005933938

model/dense/MatMul f4 [64, 7]
00000000: 4ccc 8bbd 8125 3d3d b35c f4bd d281 693e
00000010: d621 873d fbc7 8e3e cf34 e9bd 0ce2 713e
00000020: 6b04 3e3d 1d25 4cbd ccbe 2cbe be1e 9abe
00000030: 1562 a43e 8abd adbe ea95 1c3e 8d4c bdbc
00000040: bf1c 793d 284f 303c 5eef 9dbe 316b b53d
00000050: eaad 4abd ae1b 033e 1c44 85be 890f 713e
00000060: 703d 913e e882 903e f00a 65bd 9e98 bebd
00000070: 5202 4d3e d8b2 2fbc b9d3 34be 034e 373e
00000080: ad4f 50be 952c 863e f2b1 663d 22c7 bfbd
00000090: ab1f 15be c6b6 bbbd ea55 8abe 6644 a9be
000000a0: 021d d6bc bcdb 7f3d 9413 753e 0c1d 9dbe
000000b0: f5bd 863d 0efb ecbd 3015 6ebd eea5 2dba
000000c0: 7d0a b13b a55a 273e 2ec1 8a3e cb79 89be
000000d0: c2df 8abd 99c9 a93e 572d 393e 3679 0e3e
000000e0: a476 903e e6c6 26be e235 803e 5081 b73d
000000f0: 1688 713d 7002 f03d 6f62 7b3e 5c5d 64bd
00000100: c3a7 d43d f702 22be fb61 a0be a25c 763e
00000110: b72d 37be fdd4 6e3d 5d5d 943d 9337 ffbd
00000120: 14e1 52be 7826 513d 77a0 7b3e d52f 00be
00000130: 46c8 523e db57 71bd f632 2f3d 979f e43c
00000140: 0a7e ff3d 8714 183e aa6c 803e c1a8 ccbb
00000150: 1e9a 0cbc 58db adbe 1571 3c3e 59a5 06be
00000160: 1aa6 e1bd b641 a93e f9cf dd3d 7113 443e
00000170: f7a0 1bbe 8d0e 843e 6b35 32be 2981 eb3d
00000180: 3f14 483e e894 67be 70d9 793e 647f 073e
00000190: e9bc 83be 9546 e63c 869b d63d 17b4 c93d
000001a0: 6fe6 503e bbee 51be 29bb 8a3e 908a 953d
000001b0: acff fb3d db65 11be 22e8 4cbe 7a69 823e
000001c0: 1421 873d eb3f 463d ef3e a9be 06f3 2a3e
000001d0: 8c07 ef3d 2250 cdbd 8de8 b8bd 1d04 9c3e
000001e0: de3c 373e b46d 8e3e fd58 50be 510b f5bd
000001f0: bbda 10be 84b7 c9bc ac32 2bbe 9fff febd
00000200: ff97 bbbe d633 0d3e e2be 2a3e 68e5 253e
00000210: 069b 61be 7c1e 283e 2e6f ca3b e5e6 7fbe
00000220: 3e6b 2d3b 5cd5 9d3d a8c1 da3d a7a3 ab3d
00000230: 6481 2fbe fbc7 f63c 14bd 8f3e 4b64 82be
00000240: b331 823e 5cc4 803e 21ff ec3d 77c9 7bbd
00000250: f9cd d23d 6740 873e ce2b 11bd 56c1 773e
00000260: 862a 03be 72ef 9f3e c640 e73d 421d 6d3e
00000270: bad6 2d3e c10b 6c3e f299 993e 4461 6a3e
00000280: 1973 353e 5271 51be 3cde 8dbe 48f8 793e
00000290: c7cf f73d 1ffb 583d c71e f6bd 7bdb 6fbe
000002a0: dbec 8c3e 4b09 83be 9849 1cbe 5be9 05bd
000002b0: ea00 bd3d 06f2 bcbd a3b6 983d 3e95 a9be
000002c0: 9b7f 513e e827 b7bb 4777 0f3d 6b7c 41bd
000002d0: 5a89 9ebd 96a4 0fbe 14b7 a2be 6ddb 37be
000002e0: f5ca 063d ae25 adbd 960c ab3d fb82 e8bc
000002f0: c9d0 603e 4782 743e 348c d03d e5a5 d43d
00000300: fb9f c7bd 7300 63be ad9a 76bd 5e9c 4ebd
00000310: 6b46 743e a4db 073c 0308 1d3e 32a8 353e
00000320: 95fd 2cbe 26e8 b4bd bc86 b6bd 018a a2bd
00000330: f08a 4f3d 24be 84be 0edc 53be 95bd 633e
00000340: c07b cabc 5ca2 d63c ee98 483e b928 c7bd
00000350: 0a92 c1bd ea9b 903d cc43 d5bd 0ede 1b3e
00000360: 25ce 1dbe bcd8 48be 2ecf ae3e 6be1 23be
00000370: eda7 8d3e 6a80 813d d7d3 39be 06c8 21bd
00000380: 7012 7d3e e6d2 0cbe fb1f e2bc 9601 9bbe
00000390: 146d 98be 9b46 1b3d 1d7e 59be f2bb 27be
000003a0: 4587 343e 5807 bc3d 013c 7f3e 0f2f 993d
000003b0: e905 9abe 5297 61be efc9 7f3e c566 483e
000003c0: 6d15 223e c81a 7bbc ea7a 813e ef24 203e
000003d0: 120f 1dbe 34a7 21be 27f2 50bb eff7 7abe
000003e0: 5051 3dbe 1929 26be a86f 00be bb1f 7fbd
000003f0: 5909 893e 048d 403e 0cc7 013d e75d 3fbe
-0.06826076 0.046178345 -0.119317435 0.22803429 0.065982506 0.27886948 -0.113870256 0.23621386
0.046390932 -0.04984008 -0.16869658 -0.3010158 0.3210608 -0.3393367 0.15291563 -0.023107791
0.06081843 0.01076106 -0.30846685 0.08858336 -0.049482264 0.12803528 -0.26028526 0.23541082
0.28367186 0.28224874 -0.055918634 -0.09306453 0.20020416 -0.010723792 -0.17658891 0.17900853
-0.20342894 0.26205888 0.056322046 -0.093641534 -0.14562862 -0.09165721 -0.27018672 -0.33059996
-0.026136879 0.062465414 0.2393325 -0.30686224 0.065792 -0.115713224 -0.058125675 -0.0006624152
0.0054028616 0.16343172 0.2710051 -0.26850733 -0.0678096 0.3316162 0.18083702 0.13913426
0.28215516 -0.16286811 0.2504111 0.08960211 0.058967672 0.11719215 0.24549268 -0.055753097
0.103835605 -0.15821443 -0.31324753 0.24058774 -0.17888533 0.05830859 0.0724437 -0.12461772
-0.20593673 0.051062077 0.24572931 -0.12518246 0.20584211 -0.058921676 0.04277321 0.02790813
0.12475212 0.1485158 0.25082904 -0.006245703 -0.008581666 -0.33956409 0.18402512 -0.13149013
-0.110180095 0.33057946 0.10830683 0.19148041 -0.15198122 0.2579235 -0.1740319 0.11499245
0.19538973 -0.22615397 0.24399352 0.1323219 -0.25730065 0.028109828 0.104788825 0.098488025
0.20400403 -0.20501225 0.27095917 0.07301819 0.12304625 -0.14199011 -0.20010427 0.25471097
0.06598106 0.0484008 -0.33055827 0.16694269 0.11671361 -0.1002505 -0.090287305 0.30471888
0.17894313 0.27818072 -0.20346446 -0.11965049 -0.14145939 -0.02462364 -0.16718549 -0.124510996
-0.366394 0.13789305 0.16674379 0.16200793 -0.22031793 0.16417879 0.0061778044 -0.24990423
0.0026461626 0.07706711 0.10681468 0.083808236 -0.17139202 0.030124655 0.28073943 -0.25467142
0.25428542 0.2514981 0.115720995 -0.06147143 0.102931924 0.26416323 -0.035442166 0.24194846
-0.1280919 0.3123737 0.112916514 0.23155692 0.16976443 0.23051359 0.30000263 0.22888666
0.17719688 -0.20453385 -0.27708614 0.24411118 0.12100177 0.052973863 -0.12017589 -0.23423569
0.27524456 -0.25593027 -0.15262449 -0.03269325 0.0922869 -0.0922585 0.0745671 -0.33121675
0.20458834 -0.005589474 0.03502586 -0.047237795 -0.077410415 -0.14027628 -0.31780303 -0.17954798
0.0329084 -0.084544525 0.0835201 -0.028382769 0.21954645 0.23877822 0.101829916 0.10383204
-0.09747311 -0.2216814 -0.060206104 -0.050442092 0.23854987 0.0082921125 0.15335087 0.17739943
-0.16893609 -0.08833341 -0.08912417 -0.079364784 0.05066961 -0.25926316 -0.20689413 0.22240289
-0.024717212 0.026200466 0.19589588 -0.09724564 -0.09451683 0.07060988 -0.10413322 0.15221426
-0.15410669 -0.19613928 0.3414244 -0.16003959 0.2766718 0.06323321 -0.18147217 -0.039497398
0.24714065 -0.13752326 -0.02760314 -0.30274647 -0.2977072 0.03790913 -0.21239515 -0.16380289
0.17629726 0.09181088 0.24925233 0.07479679 -0.30082634 -0.2203038 0.24979375 0.19570453
0.15828486 -0.015326209 0.25289088 0.15639089 -0.1533778 -0.15786439 -0.0031882615 -0.24508642
-0.1848805 -0.16226615 -0.12542593 -0.06228612 0.26764944 0.18803793 0.031683967 -0.18688165

model/dense_1/MatMul f4 [64, 64]
00000000: 271c 3e3e 8267 243e 4287 223e 6d22 aa3c
00000010: 77d6 1dbe 6552 383e 1fc0 2f3d 2d9d 68be
00000020: 0a5a 743d d60d 9d3c 669e 3e3e b42e 4d3d
00000030: eb7d bebc 35b9 f93d 7d20 3fbe 0ffb 063e
00000040: d296 343d 5753 46be f4e4 1fbe 0493 73be
00000050: 6f57 b2bd 205a 8c3c d2ce 313d 14df b33d
00000060: d270 01be e7b1 a4bd e7fe 89bd b86e e1bd
00000070: 3f9d f73d b3aa eb3c 963a 38be d85c 1cbe
00000080: 144c 17be 5234 81be 78be a93d 7444 c43d
00000090: 9696 653c d4c6 9bbd e838 003e 2869 523e
000000a0: 4eb9 1a3e 34f4 2fbc 904d 683d c753 b63d
000000b0: effb a1bd 9e23 ab3d 60ad 793d a651 283b
000000c0: c2e4 f53b 5ee2 9bbb 9ae9 fe3c 9a31 30be
000000d0: 1079 533e a120 d2bd f7b0 4f3e 1161 c3bd
000000e0: 1e99 df3d 3d8d b8bc 5812 433d ba79 283b
000000f0: fa67 203d 55a7 2d3e 810e 11be 1f6f 83bd
00000100: c5af 20be 6b7f 213e 7453 ffbd 10ef fbbc
00000110: d53b 5abd bdad 633e 1928 7d3c cc3c 21bc
00000120: 800d 023e 90ae 59be f4af 40be b408 d5bd
00000130: 0a1a 18be 7bce c8bc f126 483d 3728 093e
00000140: 0cee adbd b5af 653c 5a15 34be 6c68 5c3d
00000150: 35d7 163c 0650 3ebd 6b81 31bd 46c6 613c
00000160: f3f3 6a3d cc3c a6bd 39e5 493e a714 7e3e
00000170: ed54 d03c 6df1 163e 0531 773a 4278 12be
00000180: 4e23 fe3d 1dea 0abe 8196 33bd 1ceb 2abd
00000190: 20f4 bc3b 1982 19be e0c8 04be 786e e93d
000001a0: 4517 dbbd 9818 dc3d f4b6 df3b 2002 be3d
000001b0: c3e6 453d a742 3abd 16bd c13d bfcb 15be
000001c0: d928 47bc bb6a 253e 6856 623e 11c5 2e3d
000001d0: d69d 173e b4b1 063e 42f3 dc3d 6ed4 14ba
000001e0: d42c a5bd 451c 0c3d 67b4 3c3d af83 553e
000001f0: 6c82 8cbd 125d 8dbd 9116 01be 8dc5 1a3e
00000200: 5e52 40be ea81 95bd 1073 c23d 00f3 37ba
00000210: 10a3 8bbd 2b9c 813d 6cec 313e a009 27be
00000220: c28f 473d 195a 8d3e 6cb5 3ebd c49d 1b3d
00000230: 7364 3cbe b746 853d 8f08 cebc fe83 763e
00000240: fe92 03be 9815 5dbd 65da 22be fb48 d8bd
00000250: a555 063d f822 56bd 0929 503e f71f 1f3e
00000260: 2331 92bc 4884 a53d 82ed bdbd ac0b 2abe
00000270: 816d 3d3e f27a e9bc 091a 9dbd 08eb 2dbd
00000280: 00c4 183e a4e6 5abc 9e56 41bd 046e 04be
00000290: 5d1f 50bd be46 723d 70d4 1abe 1166 4c3e
000002a0: 7038 b5bc 4932 4bbe 0927 37be 688a 27be
000002b0: b9e7 6a3e c10f 503e a8ee cfbd 234a 12be
000002c0: 6279 45be 3bfb 6a3e c2fe f43d 9e6b fdbd
000002d0: 82b4 64be 8035 2e3e e1e4 c3bd 495f a33b
000002e0: 38cb dabd 9849 a1bd 7950 253e de9d 803e
000002f0: b19c 22be 6809 983e c4fd cc3d bf27 43be
00000300: a16f 22be 62cb 45be 2daf 49be a86c b83d
00000310: 4bbb 19be 173d 99bd dae7 033e 1771 82bd
00000320: 6144 113e 98a6 3f3e 05e2 f13c dfff f53c
00000330: c9cf 103d a80e 72bd 85dd 47be 8469 b33d
00000340: 25f3 dbbd 3ae6 933d d134 b63d 1418 8b3d
00000350: 3415 413e 3bf5 443c da8d 15be dd79 693e
00000360: e73d 35be ed24 8cbc 10ed 173d 2958 2bbe
00000370: 9a5a 93bd 88f4 c03d 1498 3d3e de76 94bd
00000380: f6a6 fe3d 8200 55be f19b 97bd b787 67be
00000390: 9ea5 efbd fc35 12be 5f61 27be 723e 613d
000003a0: c5b6 f2bb 2828 16bd b874 41be 764c f0bd
000003b0: 1044 9dbd 0cb4 813e fb0b 4e3e 22a6 4dbd
000003c0: 4c4c 763b 9604 30be 14e2 383c a14a 003e
000003d0: 288a 8c3c 60b7 71bd b0b0 e13d f63d 7d3e
000003e0: c568 0e3e 1b58 54be 8cbd 92bd 45e0 4a3e
000003f0: 3129 15bd 85ed 8c3d 52ad 32be e12c 5a3e
0.18565427 0.1605511 0.1587191 0.020768369 -0.15413843 0.18000181 0.04290783 -0.22716208
0.05965618 0.019171637 0.18615112 0.050093368 -0.023253402 0.121935286 -0.18664737 0.13181709
0.044089146 -0.19367729 -0.15614682 -0.23786551 -0.08708083 0.017132819 0.04341013 0.08782783
-0.12640694 -0.08041745 -0.06738072 -0.11007446 0.12090539 0.02876792 -0.17991099 -0.15269792
-0.14775115 -0.2523523 0.08288282 0.09583369 0.014012953 -0.07606283 0.12521708 0.20547926
0.1510975 -0.010739375 0.056714594 0.08902698 -0.07909381 0.08356403 0.06095636 0.0025683432
0.0075040767 -0.0047572097 0.03111725 -0.17206421 0.2065165 -0.1026013 0.2028235 -0.09539998
0.10917877 -0.022528285 0.047624916 0.002570732 0.03916166 0.16958363 -0.14165689 -0.06417679
-0.15692051 0.15771262 -0.12467089 -0.030753642 -0.053279717 0.22234245 0.015451455 -0.009841155
0.12700462 -0.21257997 -0.18817121 -0.104020506 -0.14853683 -0.02451252 0.048865262 0.13394247
-0.084926695 0.014018943 -0.1758627 0.053810522 0.009206583 -0.046463035 -0.043336313 0.013780182
0.057361554 -0.08117065 0.19716348 0.24812566 0.02543112 0.14740534 0.0009429607 -0.14303687
0.124090776 -0.1356587 -0.043844704 -0.041728124 0.0057664067 -0.14991035 -0.12967253 0.11398023
-0.10697798 0.107468784 0.0068272296 0.09277749 0.048315775 -0.04547372 0.094598934 -0.14628504
-0.012155735 0.16153996 0.22103274 0.042668406 0.14806303 0.13153726 0.10788585 -0.00056774064
-0.08065191 0.034206647 0.046070483 0.20851015 -0.068608135 -0.069025174 -0.12606265 0.15114422
-0.1878142 -0.0730017 0.09494603 -0.0007017106 -0.06818211 0.06328615 0.17375344 -0.16312265
0.048721083 0.27607802 -0.046559736 0.037992254 -0.18397693 0.065076284 -0.025150565 0.24073789
-0.12849042 -0.05397567 -0.15903623 -0.10560795 0.03279652 -0.052279443 0.20328154 0.15539537
-0.017845696 0.08081871 -0.09273817 -0.16606015 0.18498804 -0.028501008 -0.076709814 -0.04246047
0.14918518 -0.013360653 -0.047201745 -0.12932593 -0.05081116 0.059149496 -0.15120101 0.1996081
-0.022121638 -0.19843401 -0.17885984 -0.16361392 0.22939958 0.2031851 -0.10152942 -0.14286093
-0.19284585 0.229474 0.11962654 -0.12374042 -0.22334483 0.17012596 -0.095651396 0.004985724
-0.10683292 -0.07875365 0.16143979 0.25120443 -0.15880086 0.29694676 0.100093395 -0.1905813
-0.15862896 -0.19315866 -0.1969573 0.090050995 -0.15012853 -0.07482355 0.12881413 -0.063692264
0.1418624 0.18715894 0.02952672 0.030029235 0.03535441 -0.05909601 -0.19518097 0.0876036
-0.107397355 0.072216466 0.08896793 0.06791702 0.18855745 0.012021358 -0.14604893 0.22800393
-0.17699395 -0.017107451 0.037091315 -0.16732849 -0.07195015 0.09421641 0.18515044 -0.072492346
0.12434189 -0.20800975 -0.0740279 -0.22610365 -0.11701511 -0.14278406 -0.16345738 0.054991193
-0.0074070417 -0.03665939 -0.18892181 -0.11733334 -0.076789975 0.25332677 0.20121758 -0.050207265
0.0037582098 -0.1718925 0.01128437 0.12528469 0.017155722 -0.05901277 0.110200286 0.24730667
0.13907154 -0.20736735 -0.071650594 0.19812115 -0.036416236 0.06881241 -0.17448929 0.21306182

model/fault_output/MatMul f4 [1, 64]
00000000: ad81 7bbe f8dc 96be b9f4 fbbb 432e 92be
00000010: c7c1 a8be fdfd 21be 5569 4abc b7c1 7d3e
00000020: bc88 6fbe a852 1c3d 49b2 193d c6bf debc
00000030: e4c9 42be b2a0 973e 41bb 64be 4762 f4bd
00000040: 4bce 37bd 97ef 17be c101 03be abab b53d
00000050: 3672 903e 25fb b8be 867b c6bd d2bb 853e
00000060: 86ca c7bd d4db 9fbe e227 34be a193 e8bd
00000070: d646 a13e eed6 08be 5909 b8bd 3c3a ae3e
00000080: 9dc7 41be 7904 433d b022 8cbe 256c 85bc
00000090: 4081 1d3e e579 edbd cca0 81bc 4554 8d3d
000000a0: f812 60be 6239 33be 7fc8 0dbe 5e69 913e
000000b0: a571 793e 32ec 8e3e 6be1 673e ff9c 8dbe
000000c0: eefc c83e 0c01 b6ba f1e0 6e3d 4708 44be
000000d0: 0e65 583e ebef 11be c41b 30be 8c4c 343e
000000e0: 098c ecbd c0b2 993e bf22 a23d 18df a1be
000000f0: d6f8 aebe 5d45 6c3e fb57 ca3e a699 813e
-0.24561186 -0.2946546 -0.0076890853 -0.2855092 -0.3296034 -0.15819545 -0.012354215 0.24780928
-0.23392004 0.038164765 0.03752354 -0.027191054 -0.19022328 0.29614788 -0.22337057 -0.119328074
-0.04487447 -0.1483749 -0.12793638 0.08870634 0.28212136 -0.36129108 -0.09691529 0.26119858
-0.09755425 -0.31222403 -0.17593339 -0.11356283 0.31499356 -0.13363239 -0.08986158 0.34028804
-0.18923803 0.047611687 -0.27370214 -0.016286919 0.15381336 -0.11595515 -0.015823744 0.06900839
-0.21882236 -0.17502359 -0.13846014 0.284007 0.24359758 0.27914578 0.22644584 -0.2765884
0.3925547 -0.001388581 0.05831999 -0.19143783 0.211323 -0.14251678 -0.17198092 0.17607325
-0.11550147 0.30019188 0.079167835 -0.3161552 -0.34174222 0.23073335 0.3952025 0.25312537

model/prevention_output/MatMul f4 [8, 64]
00000000: 411b 07be feb0 693d 9006 d3be 779f e93b
00000010: a67e 8c3d 9cd2 423e 8205 99be 0fc0 7b3e
00000020: b25d 51be 168d bc3d aadc 1a3e a260 513d
00000030: 83ff ce3c 6bc8 acbc f3ea 92be b1ef 3b3e
00000040: 9f40 64bd 4e01 633e 8a1a 32be de31 bd3d
00000050: 8b5a 4b3e d318 353d 470f 483e 6592 383e
00000060: 06db 87be 7ee0 6a3e 49fe 7e3d a38a 2e3e
00000070: cc01 80be 7630 8c3e 1a5d 63be 9fff 733e
00000080: 1699 863c 63f7 69bd 4ce5 ecbd 74af bd3d
00000090: 8ff4 213d b853 2bbe 588b 43be fd2d afbd
000000a0: 1398 553d e7ce 253e 9e4f 80be 8dc6 72be
000000b0: 5a35 a63d 311a d53c cdee 303e e827 2bbe
000000c0: 2adc bcbe 5fca 99bd af2a ec3c 74e6 99bd
000000d0: 9a6d f23d 46dd 37bd f9d6 e43d 44ad a53d
000000e0: b29f 153d 0de6 a33d c739 9cbe e5db 3e3e
000000f0: 71e7 c0bc 55bd 0f3b 48ed 1a3d 80f2 3f3e
00000100: 9a5c 88be d4a9 5b3c 5adb d5bd c48d 563e
00000110: d86c 0d3e 0e3c adbd f481 783e 1b23 34be
00000120: ae51 1dbe da2b 643e 9417 a63d a874 a5bd
00000130: 2a46 9b3e de5a 9f3d 6447 c93d 2cf8 803e
00000140: 197d 40be 1cad 87be 08cd 62be 76a6 48bb
00000150: d285 69be 344d 0fbe 1c4c 4abe 547f 4ebd
00000160: 59f8 153e a570 f2bd 0a3c 643e 01c5 babc
00000170: ffee 54be 0d60 733e 1423 833e bd18 40be
00000180: f954 8fbe b326 83be db37 313e e96c 0f3e
00000190: 277d 393d 6a52 463e 87d9 d33d 9d61 b5bc
000001a0: 94e6 873e 9cc0 07be 2546 48be 3711 143e
000001b0: 461d 26be 67d4 ac3d 1df5 74be 960a 6bbe
000001c0: c4ca 2a3e 789d 8cbd cd63 29be 5fe2 7cbd
000001d0: 4ddd d03d a49c 3a3e f812 843e 73e8 103e
000001e0: 1877 683c 673c 38be 6212 24be 7c88 be3d
000001f0: 0726 4abe 1bcf 113d 269e 47be 98eb 033d
00000200: 7826 d23c 0c07 6c3e 2c44 e63d ac3f 81be
00000210: bf29 a03e bfa2 a43d 3ea2 033e 586f 0dbe
00000220: 048f 5abe ca0a 8bbe 68f0 23be f4ff 66bd
00000230: a9c6 f6bc 5810 643e 4c34 ae3d 93b2 8abe
00000240: 3160 1c3e bbdc a03e 47d6 a13e ad3d bbbe
00000250: 7b78 17be e97f a1be 1a0e f63d ac2d 41be
00000260: f48f c3bc ba5e 1abd 388f c0bc f4f4 87bd
00000270: 3916 c93d c8b4 99bd aaac 123e 9f78 533e
00000280: fd7b 4b3e 4551 e43d bf8f 973e 4b81 a53e
00000290: ed74 613c 1eeb c3bc f418 13be caa5 0b3e
000002a0: b902 bebd 37b8 193e e8a8 803e 9341 86be
000002b0: b0ef 76be dc1c 4dbe 2721 84be 400d 053e
000002c0: 42a5 283e a694 9b3d b0a0 40be 6a85 de3d
000002d0: 6222 633e aa68 ce3b f19e d4bd 20a8 86bc
000002e0: f89c 853e 77fd 2cbd 96c4 3abc 59aa 1c3b
000002f0: 2780 77be aa88 efbd c19f 533e 06fc 5abe
00000300: 0aa1 a93d 9714 9a3e 8582 5cbe 01d2 7dbe
00000310: 4521 813d 8f05 8d3e c02e a8bd d0f7 24be
00000320: b837 58bd 99f1 813d 5eed 813d a0a6 5dbe
00000330: ebd5 f13c ce7f a43e 22ee 57be 38d9 32be
00000340: 80b3 933e 4897 49be d228 fbbd 8597 53be
00000350: 04fe 40be 3985 42be baf5 893e b2f3 033e
00000360: 8d57 22be fbb8 1a3e 4613 02bd 3ae0 0d3e
00000370: 24e4 46be ab82 84be ba87 80be f8a3 a9bc
00000380: d699 c93d e34f 84be be3f d23d 92a2 9e3e
00000390: a6fc a03e e30d b73b cdcf 133e 257b b53e
000003a0: 3a59 7b3e 4568 923e cbe3 67be e8e3 ae3d
000003b0: 2a2f 8abd 30fa 143e ae0c 8ebe 4f79 3abd
000003c0: 4492 cabd 49c5 95bd 1fca 4f3d 8d9f 63be
000003d0: d8c6 56be db16 b6bd aa12 94be a3cd 723e
000003e0: 6565 6cbe 228e fbbc ccef 593e 7e3c 17bc
000003f0: 492c 443d 9456 5a3e a08e 3639 90be c93c
-0.1319399 0.05705356 -0.41215944 0.0071296054 0.06860094 0.19025654 -0.29887015 0.24584983
-0.20445898 0.092065975 0.15123239 0.051117547 0.025268322 -0.02109166 -0.28694877 0.18353154
-0.05572569 0.22168466 -0.17392936 0.09238027 0.19858758 0.044213127 0.19537078 0.18024595
-0.2653429 0.229372 0.062254224 0.17045073 -0.2500137 0.27380723 -0.22203484 0.2382798
0.016430419 -0.057120692 -0.115671724 0.09261981 0.03953987 -0.16731155 -0.19096124 -0.085536934
0.052146982 0.16192208 -0.25060743 -0.23708554 0.08115645 0.026013466 0.17278595 -0.16714442
-0.36886722 -0.07509302 0.028828947 -0.075146586 0.11837311 -0.044888757 0.11173815 0.080896884
0.03652925 0.08002863 -0.3051283 0.1863857 -0.02354786 0.002193292 0.037823945 0.1874485
-0.2663315 0.013407189 -0.104422286 0.20952517 0.13811052 -0.0845872 0.24268323 -0.17591517
-0.1536319 0.22282353 0.08109966 -0.08078891 0.30326968 0.077810034 0.0982807 0.2518934
-0.18797721 -0.2649926 -0.22148526 -0.0030616797 -0.22804955 -0.13994294 -0.19755596 -0.0504144
0.14645518 -0.118378915 0.22288528 -0.022799017 -0.20794295 0.23767109 0.256127 -0.18759437
-0.27994516 -0.25615463 0.17306463 0.1400639 0.04528537 0.19367376 0.103442244 -0.022141272
0.26543105 -0.13257068 -0.19558008 0.14459692 -0.16222104 0.0843895 -0.23921628 -0.22953257
0.16678911 -0.06865972 -0.16541977 -0.06173932 0.1019846 0.18223816 0.25795722 0.14151172
0.01418855 -0.17991792 -0.16022637 0.09303376 -0.19741069 0.0355979 -0.19493923 0.0322071
0.025653109 0.23049563 0.112434715 -0.2524389 0.3128185 0.08038854 0.12854859 -0.13812006
-0.21343619 -0.2715667 -0.16009676 -0.05639644 -0.030124025 0.2227186 0.085060686 -0.27089366
0.15271069 0.31418404 0.31608793 -0.36570492 -0.14792053 -0.315429 0.120144084 -0.18865079
-0.023872353 -0.037687995 -0.023505792 -0.06638518 0.09818692 -0.075051844 0.14323679 0.20651482
0.19871517 0.111483134 0.29601857 0.32325205 0.013760787 -0.023915824 -0.14364988 0.13637462
-0.09277863 0.15011679 0.25128865 -0.26221904 -0.24114871 -0.2003054 -0.25806543 0.12993336
0.16469291 0.07596712 -0.18811297 0.108652905 0.22181085 0.006299098 -0.10381878 -0.01643759
0.2609632 -0.04223391 -0.011399409 0.0023905246 -0.2416998 -0.116959885 0.2066641 -0.21385202
0.08282669 0.30093834 -0.21534164 -0.24787141 0.06305174 0.27543303 -0.08212042 -0.16110158
-0.052787513 0.06344909 0.06344102 -0.21645594 0.02952095 0.32128757 -0.21086934 -0.17465675
0.28847885 -0.19686615 -0.12263645 -0.20663269 -0.188469 -0.18996133 0.26945287 0.12885931
-0.1585371 0.15109627 -0.03175666 0.13855067 -0.19422966 -0.25880942 -0.2510355 -0.02070807
0.09843795 -0.258422 0.10266064 0.30983406 0.31442755 0.005586372 0.14434738 0.35445514
0.24545756 0.28595176 -0.2264549 0.085395634 -0.06747277 0.14548564 -0.2774405 -0.045525845
-0.09891179 -0.0731302 0.050729867 -0.22228833 -0.2097429 -0.08891078 -0.2892049 0.23711257
-0.23085554 -0.030707423 0.21282881 -0.009230731 0.047893796 0.2132209 0.00017410005 0.024627
