assets/model_prevention.tflite (tflite, 44012 bytes, 6 tensors)

sequential_2/dense_8/BiasAdd/ReadVariableOp f4 [8]
000000 6d 99 57 bd 6d 87 68 3c c3 50 e5 bc 16 ff 66 bc
       -0.052636553 0.014192444 -0.027992612 -0.014098903
000010 fc e7 dd 3c fd 54 dc bd ad 8c 9f bd be f9 f3 3d
       0.027088158 -0.10758398 -0.07790504 0.11912869

sequential_2/dense_7/BiasAdd/ReadVariableOp f4 [32]
000000 05 20 84 bc 7a 3b 09 bd 5d fb d9 3d 1b 19 0d bd
       -0.01612855 -0.033503987 0.10643647 -0.03444777
000010 90 2b f1 3c 04 75 69 3d 26 ae 8a bd 7b 85 7c 3e
       0.029439718 0.05699636 -0.067714974 0.24660294
000020 d1 8d 27 3d 98 ff 51 bc 27 4d 10 3e 28 6f a2 bd
       0.04090673 -0.012817286 0.14091931 -0.079313576
000030 a7 99 05 3d ff aa 56 3c 5f cc e8 3b 84 b5 b2 3d
       0.032617237 0.013102292 0.007104441 0.087260276
000040 9d ca 46 3e 0d d6 cc 3c 33 b0 97 3b 2e 9f 40 3d
       0.19413228 0.025004411 0.004629159 0.047026806
000050 ad 9c 93 3c 56 4c 22 3c d2 8d bc 3d f0 46 45 3e
       0.018019045 0.009905895 0.092067376 0.19265342
000060 3f 0d 9c 3d fa 16 5c 3d ac fd a8 3b ad 81 c3 3d
       0.07619714 0.05373285 0.005157193 0.09546218
000070 6f 96 95 3d b3 31 50 3e 24 22 e4 3b a5 d6 10 3d
       0.073040836 0.20331459 0.0069620777 0.03536095

sequential_2/dense_6/BiasAdd/ReadVariableOp f4 [64]
000000 39 4b 13 3e 0e 53 15 3d 4d 79 72 bb be ae 8a 3d
       0.14384164 0.03645616 -0.003699857 0.06771611
000010 77 10 20 bc ff e2 9c 3d 3a 3c a4 3c a9 06 b6 bc
       -0.0097695505 0.076604836 0.02004825 -0.022219973
000020 47 30 08 bc 16 be a4 3d 20 c9 9a 3c 95 9b 95 3d
       -0.0083122915 0.080440685 0.018894732 0.073050655
000030 f2 59 b3 3c de a6 30 3d 7a 3a 8e 3c bf 47 88 3d
       0.021893475 0.043127887 0.017361868 0.066543095
000040 00 36 4b bc a4 a8 a4 3c 8e 6f 2e 3d d1 ac 21 3d
       -0.012403011 0.020099945 0.042586856 0.03947145
000050 81 fa 1b 3d 18 81 18 bd 96 ce f0 b9 aa 03 d1 3c
       0.038080696 -0.03723249 -0.00045930286 0.025514442
000060 0a 63 cc 3c 23 49 5b 3d dc 9b b0 3d c1 86 59 3d
       0.02494957 0.053536545 0.08623478 0.053107027
000070 be 3d f1 3c 1f a5 ca 3c 5a 3e 8e 3d ed 39 72 3d
       0.029448386 0.024736939 0.06945486 0.059137274
000080 62 0d d7 3d a7 3b fa 3c ff 14 89 3d c2 b9 aa 3d
       0.105005994 0.030546023 0.06693458 0.08336212
000090 35 2d 9d 3d 24 97 7f bc bb c8 84 3c ea ef 67 bb
       0.07674638 -0.0156 0.016208997 -0.0035390803
0000a0 90 e6 49 3d dc 05 1a bc 12 32 69 3d 07 84 2c 3c
       0.049292147 -0.009400811 0.056932516 0.010529525
0000b0 87 52 ed 3d 02 4e a3 3c 9a c7 5b bd ad 32 58 3d
       0.115880065 0.019934658 -0.05365715 0.052782703
0000c0 b3 28 1d 3d 35 6d 4c 3d d4 31 1f 3c 63 ad 8a bc
       0.038368892 0.049908835 0.00971647 -0.01692838
0000d0 1c 6c 6b 3d 79 4b 74 bc 11 20 70 3c a7 ed e0 ba
       0.057476148 -0.014910572 0.014656083 -0.001716067
0000e0 fd 40 c5 3d 89 99 3e bc 65 d6 0f 3d d2 2a d3 bc
       0.09631536 -0.011633285 0.035116572 -0.025777254
0000f0 d0 bb 1c 3e 2f b4 3c 3d 7a 1c 09 3e 10 d9 b3 3d
       0.1530602 0.046070274 0.13389769 0.08781636

sequential_2/dense_6/MatMul f4 [64, 126]
000000 bb 7a 5a be 28 8c a0 3d 18 8e 1b 3e 50 10 ae bb
       -0.2133588 0.07839233 0.15190923 -0.005312003
000010 43 db 92 3d 90 34 34 be e4 28 58 3d 41 cd 17 be
       0.07170727 -0.17598176 0.05277337 -0.14824392
000020 11 3f b8 3d a1 dd 4d 3e e3 32 cb bd c6 1a 76 3e
       0.08996404 0.20104076 -0.09921815 0.24033651
000030 a1 1d 0a be cd 9c 37 be a5 e2 e5 bd 2c d1 0c 3e
       -0.13487865 -0.17930909 -0.1122487 0.13751668
000040 7f 55 88 3c fb db 8f 3e c4 5e e8 3d 9a ed 8b bd
       0.01664233 0.2809752 0.113462 -0.06832428
000050 c5 5c 81 3c 23 c7 b5 3b d8 9e 69 3d 70 df 65 bc
       0.015791306 0.0055474206 0.05703625 -0.014030322
000060 3b 35 4f be 58 6a da bc c8 6d 66 3e 4f 96 4c 3e
       -0.2023515 -0.026662037 0.22502816 0.19979213
000070 6c 2b 13 3e 56 d6 d1 3d 50 d8 86 be af 50 de bc
       0.14372033 0.102459595 -0.26336908 -0.027138082
000080 33 3e a1 bc 6a d4 02 3d 5b 40 5f 3b 86 21 fa bb
       -0.01968298 0.031940855 0.0034065458 -0.007633391
000090 62 96 d7 bc 1d 6a 26 3e c4 5b 0b 3e b0 4c f3 bc
       -0.026316825 0.16251417 0.13609225 -0.029699653
0000a0 89 b9 4c be 06 86 13 3d b8 3c e8 3d db 15 25 3d
       -0.19992651 0.036016487 0.11339706 0.040304046
0000b0 05 eb 32 be cb 7d e8 3d 1a 4f a0 3d 19 85 9d bd
       -0.17472465 0.11352118 0.078275874 -0.07691402
0000c0 a4 da fa 3c 2e ed 30 3d ab 44 97 bd 42 e2 85 3e
       0.030621834 0.043194942 -0.07386144 0.26149184
0000d0 bc db 1d be a4 30 48 3d 5a 87 7a bd 48 46 b9 3b
       -0.15415853 0.048874512 -0.061164238 0.00565413
0000e0 e0 02 40 bd 00 68 1a 3d ed d6 9f bd 87 16 26 be
       -0.04687774 0.03769684 -0.07804666 -0.16219531
0000f0 24 e3 16 3e 18 93 1b 3e 7e 87 d7 3d ca 96 d3 bc
       0.14735085 0.1519283 0.1052389 -0.025828738
000100 0a 23 1b be e7 12 74 be a7 6a 4b 3e ce 9d 43 3e
       -0.15150085 -0.23835336 0.19864903 0.19103166
000110 30 35 d0 3d 1f b9 d6 3c 9b 3c ae bd fc cc 17 3e
       0.10166395 0.02621132 -0.08507653 0.14824289
000120 d8 f4 80 ba 23 98 92 be b3 bc 0e bd b2 5c 83 bd
       -0.0009838594 -0.28631696 -0.034847926 -0.064141646
000130 64 f7 fa 3d 11 27 d6 3d 60 61 c4 3b 3c fe 16 bd
       0.12254217 0.1045667 0.0059930533 -0.03686355
000140 f8 96 65 bd 77 e9 91 3e 1c ee 3f be 15 fa b4 3d
       -0.05605218 0.28498432 -0.18743175 0.08836762
000150 1a 9e 67 3d a0 cb 74 be b7 20 ea 3d 96 c7 18 bd
       0.05654726 -0.23905802 0.11432021 -0.037299715
000160 31 c8 0d be 36 74 e7 bc 25 fe ef bd 5a aa 7a bd
       -0.13845898 -0.028253656 -0.11718396 -0.061197616
000170 96 04 34 3e 5a 17 d9 bb 1f 18 df bd 00 cd 9e 3a
       0.17579874 -0.006625098 -0.108932726 0.0012115538
000180 2c 0d 34 3e c4 79 21 bd ba 2f a4 bd fc b3 62 3d
       0.1758315 -0.039422765 -0.080169156 0.055347428
000190 81 9e e5 3d c8 15 1d be d5 16 25 be 3c e1 4c be
       0.11211873 -0.1534034 -0.16121991 -0.20007795
0001a0 75 3f d1 bd f9 7d 64 3e 20 e4 73 3e f3 bd ef 3d
       -0.102171816 0.2231368 0.23817492 0.11706152
0001b0 6a 38 85 3d 84 52 6c 3d 45 b8 8b 3e db 81 93 3d
       0.06504901 0.05769588 0.27289024 0.07202502
0001c0 4b 3b 1e 3d 3c 62 34 bd 56 7a 53 3c de 32 59 be
       0.038630765 -0.044038996 0.012907585 -0.2121081
0001d0 01 9f b4 3b b9 23 93 bd b4 68 c9 bd f6 a1 30 be
       0.005512119 -0.07184548 -0.09834424 -0.17249283
0001e0 9c 68 1f be d0 b8 14 be dd 96 a0 3c 64 ae 82 3d
       -0.15567249 -0.14523625 0.019603187 0.063809186
0001f0 c2 65 ab 3d 62 bb b2 bc a6 22 c9 bd be 66 a9 bd
       0.08369018 -0.021817867 -0.09821062 -0.0827155
000200 4d 64 92 3e d0 b0 e4 bd ff 65 83 3e 93 96 a9 bd
       0.28592148 -0.11166537 0.25663754 -0.08280673
000210 13 9a f5 bc 19 6f 84 3d d9 46 8b 3d 34 df de bc
       -0.029980695 0.06466503 0.068006225 -0.02720604
000220 8f 94 20 be f2 f3 04 3e 8e 40 a8 bd cb 46 10 bd
       -0.1568167 0.12983683 -0.08215438 -0.035223763
000230 0e a3 4b be 90 1c 5a 3e 15 a9 3a 3e e5 25 8c 3e
       -0.19886419 0.21299958 0.18228562 0.2737266
000240 45 10 a9 3d 77 a8 83 be 89 54 57 be 06 68 35 3d
       0.08255056 -0.25714466 -0.21028341 0.044288658
000250 ca d6 b6 bc f3 29 87 bd 98 94 05 3d 82 ba 35 be
       -0.022319216 -0.06599798 0.032612413 -0.17746928
000260 02 8e 67 3e 5c 03 2f 3d fb 79 b6 3d e0 e7 37 bd
       0.22612765 0.042727813 0.08909985 -0.044898868
000270 73 5a 0d bd d2 42 a8 3d 41 4c 83 3e ab 12 0b bd
       -0.034510087 0.0821587 0.25644115 -0.03395335
000280 f7 ba 8d ba e2 dc ec 3c eb 12 80 be 84 0b 68 3e
       -0.0010813166 0.028913919 -0.25014433 0.22660643
000290 63 ac 4e 3d 77 e0 f6 bd 37 d8 98 bd ca 3d 69 3d
       0.05045737 -0.12054532 -0.07463115 0.056943692
0002a0 9e 7a a6 3d bf 28 06 bc cc 8d 49 3e 3e 4d 91 3c
       0.08128856 -0.008188426 0.19682997 0.017737027
0002b0 85 c9 36 3e c0 98 c1 bc 31 af 31 3e 19 8c 9d 3d
       0.17850311 -0.023632407 0.17351986 0.07692737
0002c0 2e 51 1f 3d 16 5f e8 3d 80 14 f9 bd 57 97 1b 3e
       0.03889578 0.11346261 -0.12162113 0.1519445
0002d0 f9 7c 8b bd b8 df 33 3e bc 3c 49 3d 22 4d 21 bd
       -0.06810946 0.1756581 0.049130186 -0.0393802
0002e0 9b 24 cd bd e0 a1 f1 3c 63 08 fe bd 8e 7a cf 3d
       -0.100167476 0.029496133 -0.124039434 0.10130797
0002f0 71 6c 2a be f0 03 cc 3d e7 48 3b 3e d1 79 09 be
       -0.1664293 0.099616885 0.18289529 -0.13425376
000300 a8 dd 51 3e 95 be 31 3e 20 15 1d 3e ff 01 5d 3e
       0.20494711 0.17357858 0.1534009 0.21582793
000310 12 b6 4b be 7e fd 85 3e 97 6c 1c be d9 82 00 be
       -0.19893673 0.26169962 -0.15275799 -0.12549914
000320 44 0a 63 3d 71 30 42 3d 7c 2c 8b bd 34 f8 a3 3d
       0.055429712 0.04740948 -0.06795594 0.08006325
000330 c5 30 a7 3d 98 48 e3 3c ce 1b 1d bd f0 5e 0b 3e
       0.08163599 0.027744576 -0.038356595 0.13610435
000340 11 cf 95 be 41 45 ac bc b5 e3 23 3e 7d e8 17 3e
       -0.29259542 -0.021029117 0.16004832 0.14834781
000350 6e 94 d0 bc 49 ff e1 bd a4 4d fb bd 9f a2 67 3e
       -0.025461402 -0.1103502 -0.12270668 0.22620629
000360 7b 56 b2 3d 86 9a ec bd f0 4e 33 bd 58 f7 7c 3e
       0.08707901 -0.115529105 -0.043776453 0.24703729
000370 b8 c6 d4 3c 27 03 10 3e d9 03 d8 bd dc c5 89 bd
       0.025973663 0.14063703 -0.10547609 -0.06727192
000380 02 b4 84 bd 46 1a 6f 3d cb aa 42 bd 8c 5d d9 3d
       -0.06479646 0.058374666 -0.047526162 0.10613546
000390 e5 c3 0d 3c d2 1a e6 bd 67 3f 76 3c e6 65 e1 bc
       0.008652662 -0.11235584 0.015029765 -0.02751441
0003a0 1a 89 dd 3d 98 91 0d 3e 93 9d 20 3e 2f 00 b6 3d
       0.10817166 0.13825071 0.1568511 0.08886754
0003b0 83 5f 4b 3e 63 a0 8a 3e 9d 25 48 3e f3 ba 63 be
       0.19860654 0.2707549 0.19545598 -0.22239284
0003c0 65 50 b5 bd 96 29 1c be 82 d4 24 3e 1a b0 06 be
       -0.08853225 -0.15250239 0.1609669 -0.13153115
0003d0 98 a1 cc bd d1 e7 0d be 5b 50 15 be f3 7b cd 3d
       -0.09991759 -0.13857962 -0.14581434 0.10033407
0003e0 de e6 d9 bd 06 2c 09 bd d1 d7 a3 3d 54 6b 32 bd
       -0.106397375 -0.03348925 0.08000148 -0.043559387
0003f0 7c 2e 54 3e 50 d7 1f 3c dc 81 cb 3d 52 7f 88 bd
       0.20720857 0.009755924 0.09936878 -0.066649094

sequential_2/dense_7/MatMul f4 [32, 64]
000000 e1 40 ab be 7a 6e ae be b6 32 72 3e d7 ea a8 3e
       -0.33447936 -0.34068662 0.23652157 0.3299167
000010 d3 14 85 be e9 45 9e 3e 86 99 b2 be c0 d5 21 3d
       -0.2599245 0.30912712 -0.34882754 0.03951049
000020 af 34 9d 3e d8 3f 62 3e db 2d 16 be 50 92 92 be
       0.30704257 0.22094667 -0.1466593 -0.28627253
000030 76 9b 05 3d f9 48 68 3e a0 c9 52 3d 78 0f 5c 3e
       0.032618962 0.22684087 0.051461816 0.21490276
000040 ad ac 04 3c b9 cc 23 be 09 0a e0 bd 72 81 65 bc
       0.00809781 -0.15996064 -0.10939414 -0.014007913
000050 e7 ff 24 3e ce 4b 63 be 5a 0e 30 be b8 ab 99 3d
       0.16113244 -0.22196886 -0.17192975 0.07503456
000060 87 b7 03 3e 81 06 be 3e b4 72 ab 3e 69 b9 eb 3d
       0.12862979 0.37114337 0.3348595 0.115099736
000070 b8 1f 1c 3d b6 27 24 be 27 64 4f 3c 93 f3 98 be
       0.038116187 -0.16030774 0.0126581555 -0.29873332
000080 e6 c5 ac 3d 57 24 04 3e 04 34 be 3e 54 3a 10 3f
       0.08436184 0.12904488 0.3714906 0.56339
000090 18 8b 9f 3e 20 3e 72 3d a9 78 26 be c0 48 fe 3b
       0.31160808 0.05914128 -0.16256966 0.0077601373
0000a0 af af ca bc 59 75 2e 3e 49 dc 2b bd 2c 07 bb bd
       -0.024741976 0.17036952 -0.041958127 -0.09132227
0000b0 36 61 82 3d fb 65 03 3e ae 9b 73 3b 50 7c 3e 3d
       0.06366198 0.12831871 0.003717165 0.046505272
0000c0 a9 69 0b 3d 3f 54 96 3d d1 f3 16 bd 00 d0 35 be
       0.034036312 0.073402874 -0.036853615 -0.17755127
0000d0 7e 6d 12 be 2c 30 8e be ea a2 3c bd df 61 05 3d
       -0.1429958 -0.27771127 -0.046053804 0.03256404
0000e0 f5 12 f3 3e 02 7d da 3e 7a 00 4f be d9 3b 0d bd
       0.474754 0.42673498 -0.20215026 -0.034480903
0000f0 ba 6a 1f 3e 9b 30 11 bd 81 86 d8 bd 5b 3d 36 be
       0.15568057 -0.035446744 -0.105725296 -0.17796843
000100 46 97 eb bc 92 f7 80 bd e5 21 7b 3e fc 99 0c 3e
       -0.028758656 -0.0629722 0.24524648 0.13730615
000110 5c 59 12 bd 41 7f 45 bd 49 a2 e5 3d 69 c6 21 be
       -0.03572975 -0.048217062 0.11212594 -0.15798344
000120 d7 a6 22 3e f3 cb 98 bb ac 5c 3c 3e a7 f4 93 be
       0.15883957 -0.0046629845 0.18394727 -0.28897592
000130 56 21 bc be 5f ed 29 be ce 44 a6 be a9 1c 57 bd
       -0.36744183 -0.16594456 -0.3247437 -0.052517567
000140 30 76 b3 3d 10 07 0f 3c 8e 9c 36 bc a1 f9 87 be
       0.08762777 0.008729711 -0.011145724 -0.2655764
000150 a8 59 8d be 29 13 5b be 2b 73 d8 bd fa 34 df 3d
       -0.27607465 -0.21394028 -0.105688415 0.10898776
000160 ff 79 78 bd 9e a5 e9 bd 90 94 83 3e f5 59 07 3f
       -0.06066322 -0.11408542 0.25699282 0.5287164
000170 54 ac 47 bd 5a 1e b6 be 27 46 b0 3d f0 35 98 3c
       -0.04874833 -0.3557003 0.086071305 0.018580407
000180 6d 80 c1 be 40 16 8d 3e 9f 3d 9f 3d 76 3c af 3e
       -0.37793294 0.27556038 0.07775425 0.34225816
000190 69 1e 51 3e 5c 7f 67 be 44 7c 4a be 6a c1 6c 3d
       0.20421757 -0.22607177 -0.19773966 0.05780164
0001a0 de 0b 56 3e 44 44 41 bd 2d 1f 6d bd ab 37 2f be
       0.20902964 -0.047184244 -0.05789106 -0.1711108
0001b0 4e 3d 37 3c c7 31 52 3e 53 cf 4a be 13 7b 6d 3d
       0.01118405 0.20526801 -0.1980565 0.0579787
0001c0 dd 9c 62 bd 4a 49 a0 bd a0 cc 17 bd 64 b9 e1 bd
       -0.055325378 -0.07826479 -0.03706038 -0.110216886
0001d0 ab 4d ec bd 2c cd 43 bd ad fe d3 bd 95 4a c7 bd
       -0.115382515 -0.04780309 -0.1035131 -0.09731022
0001e0 20 d3 d1 3c ac 27 9f 3e 04 bc 34 bd 66 bc 58 be
       0.025613368 0.31084955 -0.04412462 -0.21165618
0001f0 e8 c6 58 3d 81 29 93 be da 30 0c 3e 71 f8 c4 3d
       0.052924067 -0.28742602 0.1369051 0.09617699
000200 86 3a a9 be 3c bf 16 3e 75 b6 98 3d d9 23 4a be
       -0.33052462 0.14721388 0.07456676 -0.19740237
000210 5f 89 6e 3d e6 98 b4 3e 08 87 24 3e 0c e2 85 3b
       0.058236476 0.35272902 0.16067135 0.004085785
000220 e6 7c 96 3e b0 ff 25 3e 73 f1 70 3d d0 9f 8f 3d
       0.29392165 0.16210818 0.058824014 0.07012904
000230 be 4f 84 3e a2 37 29 be 05 f9 d9 bd c6 46 38 3e
       0.25842088 -0.16525128 -0.106432 0.17995748
000240 48 96 38 be 3d 67 59 3e 04 33 04 be 42 6e 56 3e
       -0.18026078 0.21230789 -0.12910086 0.20940498
000250 05 96 e3 bd 64 e9 64 bc 9f 04 38 3d f3 a7 47 3e
       -0.11112598 -0.01397166 0.044926282 0.19497661
000260 61 04 8a bd 09 07 06 3e f5 91 84 bd 21 47 bd 3c
       -0.067391165 0.13088621 -0.064731516 0.023105206
000270 a4 b1 74 3e e1 f7 08 be 45 7c 94 3e 31 d0 ab 3d
       0.2389589 -0.13375808 0.2900106 0.08389319
000280 7c 29 b9 3d 12 66 dc bd 09 7f 1b 3e 9e 13 cd bd
       0.09041116 -0.10761656 0.15185179 -0.10013507
000290 ba 55 20 3e f3 97 15 3d ea 50 89 3e 67 17 ba bd
       0.15657702 0.036521863 0.26819545 -0.09086495
0002a0 5e 02 14 be 4e 11 e1 3d 65 cc 6d 3d 67 5f ee 3d
       -0.14454028 0.10989629 0.058056254 0.1163929
0002b0 9c 74 88 be 9c 8f 5c 3e b7 49 80 3e c5 c8 f0 3e
       -0.26651466 0.21539158 0.2505624 0.47028175
0002c0 57 64 5a be ed 32 0d 3d 15 aa b1 bd cd 6a 64 3e
       -0.21327339 0.034472395 -0.08675019 0.22306366
0002d0 32 ba 36 3e a2 e2 73 bc 7f c1 04 3d 72 6f 5e 3e
       0.17844465 -0.014885576 0.032411095 0.217222
0002e0 8c 2e a6 3e 2c 97 e4 bd 3c 57 39 be 4d 33 0e 3d
       0.32457387 -0.11161646 -0.18099684 0.034716893
0002f0 89 60 c7 bd 0a 5a 6e 3e ff 5d 9a 3d b6 4c e8 be
       -0.097352095 0.23276535 0.075374596 -0.45371026
000300 30 c0 20 be 5f 87 66 bd 1e 17 92 bd e8 35 c7 3c
       -0.15698314 -0.056281444 -0.071333155 0.024317697
000310 16 fc 22 3e ec 77 6e be 73 d6 c8 bd 33 ee 62 3e
       0.15916476 -0.23287934 -0.09806528 0.22161178
000320 ab 7c 1f bd b6 ce d5 bd 2e b8 dc 3b 6a 4f 19 be
       -0.038937252 -0.104398176 0.006735823 -0.149717
000330 53 e6 0c be 40 03 35 be 71 b1 1d 3e d8 98 d8 ba
       -0.13759737 -0.17677021 0.1539972 -0.0016525043
000340 7b 36 0c 3e 53 47 60 be a0 82 c6 3d 81 a1 4a 3e
       0.13692658 -0.21902208 0.096928835 0.19788171
000350 7f 39 d9 3d 38 64 0e 3e 02 31 f7 3d 55 6e 1a 3e
       0.1060667 0.13905418 0.120698944 0.15081151
000360 d4 53 5c 3a c3 d2 31 be 22 ec 20 3e 20 91 c8 bd
       0.00084048253 -0.17365555 0.15715078 -0.097933054
000370 a0 fa 00 be 24 ba 0c be 66 51 02 bd 6f f7 c9 bd
       -0.12595606 -0.13742882 -0.03181591 -0.09861647
000380 11 84 6a 3c 1f 37 1f 3e 58 e1 aa be 51 5b 0d be
       0.014313714 0.15548371 -0.3337505 -0.13804366
000390 74 68 4a bd 4d 2d 46 be 44 42 8e be 2c a8 fe 3d
       -0.04941602 -0.19353218 -0.27784932 0.1243442
0003a0 c7 31 8c bd a9 8d 75 bd a5 56 44 bc 0e 52 46 3e
       -0.06845432 -0.05994955 -0.011983548 0.19367239
0003b0 25 4b da bd e0 27 bd 3d f2 11 63 be 5c af 66 3e
       -0.10658864 0.09236121 -0.22174814 0.22527832
0003c0 85 4e 01 be 3a 6f 0e bd 51 e2 00 3e a2 25 97 3d
       -0.12627609 -0.034774043 0.12586333 0.07380225
0003d0 f2 c6 28 3e d7 42 a8 bd 5f 70 14 3e 86 88 00 be
       0.16482142 -0.08215874 0.14495991 -0.1255208
0003e0 9d 34 56 be ca 21 da bd 67 e9 e8 bd 18 0b ff bd
       -0.20918508 -0.10650976 -0.11372643 -0.12453288
0003f0 ca 43 4a be dc 8d 30 be 10 71 ac be 0f ef 23 3d
       -0.19752422 -0.17241615 -0.3368001 0.040022906

sequential_2/dense_8/MatMul f4 [8, 32]
000000 43 4b bd 3b ce e5 d1 bd 57 7d fd 3c b5 d6 0f 3e
       0.005776794 -0.1024891 0.030943556 0.14046748
000010 5d 06 c5 be 6a ab 58 3e 5b 33 bd bd 3c 51 d1 3d
       -0.38481417 0.2115914 -0.09238311 0.10220572
000020 ae 3f 87 3e 8b 9b 6f be ff 08 4f be ea cb 51 3e
       0.2641577 -0.23399179 -0.20218275 0.20487943
000030 a0 14 db be 5a dd 91 ba 62 20 b9 be c5 6a 86 be
       -0.42789173 -0.001112859 -0.3615752 -0.26253334
000040 ab 8c 88 3e 7b 2f ab 3e 1e aa 54 3e 01 56 e7 bd
       0.2666982 0.33434662 0.2076802 -0.11295701
000050 67 31 d3 be e8 53 e1 bb 8b 5c bd bc 4f b9 3e 3a
       -0.41248628 -0.0068764575 -0.023115417 0.0007275538
000060 e1 69 5e bd b7 0b ef be 2b aa d1 bd a9 08 7b be
       -0.054300193 -0.46688625 -0.10237535 -0.24515022
000070 13 2d 0f be 9c e9 3e be 59 7f 9b be 56 02 59 be
       -0.13982038 -0.18643802 -0.30370596 -0.21192297
000080 a6 d2 89 be c3 eb f5 bc 8d 50 3a be 0e e7 1b 3e
       -0.26918525 -0.030019647 -0.1819479 0.15224859
000090 b7 d3 60 3e 4f 00 62 be 58 04 90 3e a4 05 7e be
       0.21955763 -0.2207043 0.28128314 -0.24806839
0000a0 a9 f7 d0 3d bc b4 89 3e 49 6a 8a 3e 10 f1 a4 3d
       0.102034874 0.26895702 0.27034214 0.080537915
0000b0 c8 56 90 3c 8d f6 58 be 3c 8b 74 be 31 f6 24 be
       0.017619506 -0.21187802 -0.23881239 -0.1610954
0000c0 12 2b a8 bd 63 ec d1 3d f8 45 2f 3e c8 33 1f be
       -0.0821134 0.10250165 0.17116535 -0.15547097
0000d0 f0 d2 2d 3b f6 d1 46 3e 37 a0 09 bf 4a ca e4 3d
       0.0026523434 0.19416031 -0.53760093 0.11171396
0000e0 1f f6 b7 3e 2d 16 0b 3f 35 a5 73 bb d1 e5 9d be
       0.35929963 0.5433071 -0.0037177328 -0.30839399
0000f0 26 f8 88 be 9c 10 01 bf 81 0b 1c 3f df 5c 67 be
       -0.26751822 -0.5041597 0.60955054 -0.22594021
000100 3e 6e d7 3e 22 3d ef bd 8c 4b ac be ef e4 1e be
       0.42076296 -0.11681582 -0.33651388 -0.15517019
000110 06 57 05 be 6b 3e f1 be 70 63 80 3e 92 d0 b3 3d
       -0.13021478 -0.47117934 0.25075865 0.08780016
000120 7d 2d b0 bd 96 78 70 3d 4f 32 40 3e 57 7e 0d be
       -0.08602426 0.05870875 0.18769191 -0.13817726
000130 06 6d 2c be fe d1 24 be 7e 42 56 3c 56 fb 0c 3f
       -0.16838464 -0.1609573 0.013077376 0.5507101
000140 59 ff 8d 3e dc bf fb be 5b 88 0e bf 5b fd 75 3e
       0.27733877 -0.49169815 -0.5567681 0.24022429
000150 ac e7 13 bf 1e 65 a1 3e 08 91 06 bf 48 6d ae 3e
       -0.5777538 0.3152246 -0.5256505 0.3406775
000160 59 99 49 be 75 bb 01 bf 03 9e 43 3d a3 41 de be
       -0.19687404 -0.5067666 0.047758114 -0.43409452
000170 1e 12 ec 3e d2 f7 c8 3d 16 e3 fb 3e 0b c6 bb be
       0.46107572 0.09812893 0.4919669 -0.36674532
000180 32 49 3a bd f3 8a 60 be de 01 6c be 04 02 b4 be
       -0.04547996 -0.21928005 -0.23047587 -0.35157788
000190 ef 37 bf 3e 75 f0 b6 3e fa ef 0e bf 39 9d 9b be
       0.3734736 0.3573033 -0.55834925 -0.3039339
0001a0 3f bf c1 be e4 6a f4 be 28 fe 09 bf 31 b1 d0 be
       -0.37841222 -0.477378 -0.53903437 -0.40760186
0001b0 33 c0 37 be 3a c0 c7 3e 53 8d 86 be cd 44 d7 be
       -0.17944412 0.39013845 -0.26279697 -0.42044678
0001c0 43 47 15 3b e7 59 95 be 30 de 08 bf b8 81 70 be
       0.002277807 -0.29170153 -0.5346403 -0.23486984
0001d0 02 33 14 3c 60 29 2e 3e 10 71 3e 3e 72 bd ee 3c
       0.009045364 0.17007971 0.18597817 0.029143069
0001e0 ab dd ae 3e 8b 65 d4 3e 8d eb bf 3e 2b 21 d6 be
       0.34153494 0.4148372 0.37484398 -0.4182218
0001f0 a1 ba e0 bd db 28 d1 3e cf c1 86 be dd 78 09 3e
       -0.10973097 0.40851483 -0.2631974 0.13425012
000200 f0 7f 87 3e 97 05 a7 be 05 be 0b 3f 23 d8 c8 3b
       0.26464796 -0.32621452 0.5458682 0.006129281
000210 49 7e bb 3e e3 71 c9 be 0c 47 e3 bd e5 77 a9 bb
       0.36619785 -0.393447 -0.110975355 -0.0051717632
000220 ca ea a0 be 8b c3 16 be 83 32 5f 3e c5 42 9d be
       -0.3142913 -0.14723031 0.21796612 -0.30715004
000230 d1 f5 cc 3e eb da cc bd 56 fb 6b be c5 04 77 be
       0.40031293 -0.10002693 -0.23045096 -0.24122913
000240 eb d5 fc bd f6 75 8c be 1e 8e 51 be 50 8b 0b 3f
       -0.12345489 -0.27433747 -0.2046437 0.5450945
000250 04 10 86 3d a8 2f f6 3e ee f2 3a be a9 f8 d7 be
       0.065460235 0.48083234 -0.18256733 -0.421819
000260 31 3c bb be f7 85 f2 bc ca 9d 0c bf 35 79 08 be
       -0.3656936 -0.029604895 -0.54928267 -0.13327487
000270 f6 2a 4a 3e a9 3f 9b 3e 9a c6 e2 be c9 72 01 3f
       0.19742951 0.30322006 -0.44292146 0.50565773
000280 a8 aa b6 3e a7 b0 d4 3e 7f 8c 62 3e c6 de 3f be
       0.35677075 0.41541025 0.22123908 -0.18737325
000290 85 dd 6f be 44 15 ee be 97 5c 10 bd a3 0b 79 bf
       -0.23424347 -0.465006 -0.03524455 -0.9728338
0002a0 41 7c 99 bd 66 8b c7 3e 7a 89 42 be a6 ea 8d 3e
       -0.07494403 0.3897354 -0.18997756 0.27718085
0002b0 c4 21 ce 3e da 16 83 be 38 b7 33 3e 80 d6 14 bf
       0.40260136 -0.25603372 0.17550361 -0.581398
0002c0 6f 6b 20 bf 4b 23 01 bf 02 8d cc 3e e1 e3 60 bd
       -0.6266393 -0.5044448 0.3995133 -0.054904822
0002d0 66 e6 c5 3e fb 50 4d 3e 67 9f 8e 3d 52 72 70 bf
       0.38652343 0.20050423 0.06963997 -0.9392444
0002e0 12 bd cb be 38 18 24 bc 6b ff d1 bd 6b 88 4a 3e
       -0.39792687 -0.01001554 -0.10253795 0.19778602
0002f0 55 ac 0a 3f 42 5d 5f bf ab 42 e5 bc 06 5c a2 3e
       0.5416921 -0.87251675 -0.027985891 0.31710833
000300 9d 1e c2 be 55 12 26 be f6 e5 17 bd 6f e0 8e 3e
       -0.3791398 -0.1621793 -0.037084542 0.27905604
000310 db fb 61 be 5c 41 67 be bc 01 a1 3d 59 7b 3f bb
       -0.22068731 -0.22583526 0.07861659 -0.0029217808
000320 c0 a8 c8 3d 7a ec 97 3b 63 4d 65 3e 3b dd 36 be
       0.097978115 0.0046363445 0.22392802 -0.1785783
000330 03 62 0d bf 3a 19 9e be f9 0d 8b 3e cd 8f 89 3e
       -0.5522768 -0.3087862 0.27159098 0.26867524
000340 88 cb b6 3e f9 05 9e bb 57 4d 30 3e 9a 3b 41 be
       0.35702157 -0.0048224893 0.17217003 -0.18870392
000350 53 64 59 be 01 f2 07 bf 1c 31 16 bd 5c 63 be be
       -0.21229677 -0.53103644 -0.036667928 -0.3718518
000360 4f 53 1a be 44 0b 6f be 91 b1 5e be eb b7 ca be
       -0.15070842 -0.23344141 -0.21747424 -0.39593443
000370 88 2e b2 be 96 6b 61 3e 6e 9b b3 be 6e 0d 8b 3e
       -0.34801126 0.22013697 -0.3507952 0.27158684
000380 4b 50 b8 be 05 fe 3f bd 78 58 c3 3e 29 17 a6 3d
       -0.3599876 -0.04687311 0.38153434 0.08109886
000390 a6 79 d1 bd f9 e7 5e be df f7 9a be 76 21 da 3d
       -0.10228281 -0.21768178 -0.30267236 0.106509134
0003a0 5c 96 91 3d cd 1f a7 be c3 79 3b 3e 76 4f 25 be
       0.07108757 -0.3264145 0.18308167 -0.16143593
0003b0 a2 6d 22 bf aa 7e c3 bd ff 5f 73 3e ce ba 35 be
       -0.63448536 -0.09545644 0.23767088 -0.17747042
0003c0 ca 23 b3 3e 42 70 a2 bd dd c3 02 be a1 34 cf 3c
       0.34988242 -0.07931568 -0.12770028 0.02529365
0003d0 a0 72 dc be 8e c1 54 be 8e 67 90 3d cf 0c 58 3e
       -0.43056202 -0.2077696 0.070510015 0.21098636
0003e0 1b 93 7c 3e 5f 67 3d be f4 eb b6 be 8f e5 98 3c
       0.24665491 -0.18496464 -0.35726893 0.01866415
0003f0 93 77 8f bd 8b fc 8c 3e 49 a7 84 be 61 7b 0a 3e
       -0.07005229 0.27536425 -0.25908878 0.13523628
